data.pth (torch, 3818 bytes, 6 tensors)

l1.weight f4 [8, 19]
000000 8a f6 b4 be 9b 2a e3 3e c9 cf 32 be 68 96 a7 3e
       -0.35344344 0.44368443 -0.17462076 0.32731938
000010 69 3c ae 3e f0 c9 f4 be 7c f6 c6 be 74 8d 99 be
       0.34030464 -0.47810316 -0.38859928 -0.29990733
000020 ef 8f cf 3d 1c 1a fb be 58 e1 cf be 7f e4 35 3f
       0.10134875 -0.49043357 -0.4060161 0.7105178
000030 07 c0 f4 be fe bf 85 3e f7 d8 c5 be 8a 1e 01 bf
       -0.47802755 0.2612304 -0.38642094 -0.50437224
000040 30 18 59 be ef e3 20 3f 01 f4 3c 3f ea fc f0 3e
       -0.21200633 0.628478 0.7380982 0.47067958
000050 44 2e 1b 3e f8 1d cc be 30 d4 87 3d 1a d0 80 3e
       0.15154368 -0.39866614 0.066322684 0.2515877
000060 05 ff 2f 3f 32 36 bd 3e 1d 30 45 3e 38 fd ec 3d
       0.68748504 0.3695541 0.19256635 0.11571735
000070 57 f2 df be 73 18 dd be 2d 0f cb 3e 95 52 28 3f
       -0.43739578 -0.43182716 0.39660016 0.6575101
000080 79 6a 7e 3e e5 4e 49 3e cb 40 ff 3e 8a f7 05 bc
       0.24845304 0.19659002 0.4985412 -0.008176694
000090 4f e8 e9 3e f2 6c 98 3e f1 a2 8c 3e 09 56 5b bd
       0.4568505 0.2977062 0.27468064 -0.053548846
0000a0 52 e1 44 bd f4 e5 43 bc a1 f0 91 bd 8e 6a e0 3e
       -0.048066445 -0.011956681 -0.071259744 0.43831295
0000b0 98 62 b6 3e 1d 53 41 3f 38 15 e5 bd 8b aa 7a bc
       0.35622096 0.75517446 -0.11185688 -0.01529945
0000c0 42 7d ca bd f6 db f0 be a9 da e4 3e 9f 6b b5 3c
       -0.09887172 -0.47042817 0.44698074 0.022146044
0000d0 77 ca dd 3e 66 95 02 3f a0 1e f3 bd fa 2d f0 be
       0.4331853 0.51009214 -0.11871076 -0.46910077
0000e0 63 4e f0 be 95 51 fa be 24 3b 04 3d 2e 0f c5 bc
       -0.46934804 -0.48890367 0.032282963 -0.02405509
0000f0 a9 07 a5 3e 41 b8 3c 3e ac fd 8c be 67 41 f9 be
       0.32232407 0.18429662 -0.27537286 -0.4868271
000100 65 b5 84 be ba 31 a9 3e ea 8d f2 3d bd 69 2f be
       -0.25919643 0.3304575 0.11843474 -0.1713018
000110 33 5c 41 3f 36 fb 84 be b7 63 a0 3e c0 3c 95 bc
       0.7553131 -0.2597291 0.31326076 -0.018217444
000120 bc e9 94 be 49 6c 4a be 3e 1e 07 3f 06 3d dc 3e
       -0.29084575 -0.1976787 0.5278052 0.43015307
000130 60 f4 d1 be 50 32 79 3e b4 39 94 be 2f 44 05 3f
       -0.41006756 0.24335599 -0.28950274 0.52057165
000140 d2 64 eb 3e f1 73 ce be 23 95 9f be f6 76 7c be
       0.45975357 -0.4032283 -0.3116847 -0.24654755
000150 79 6d 12 3f c9 15 16 bf e5 f3 ec be db 71 07 3f
       0.5719829 -0.5862699 -0.46279827 0.52908105
000160 68 ad bf be 77 bb b0 3e e7 c6 af be fd de 17 bf
       -0.37436986 0.34518024 -0.34331438 -0.5932463
000170 62 71 71 be bc 69 14 3f 7b 19 54 3f d3 96 4b be
       -0.23578408 0.5797384 0.8285138 -0.19881754
000180 a5 43 ce bd fa f6 b3 3e d6 ca 60 3e f6 6c 14 3d
       -0.10071496 0.35149366 0.21952376 0.036236726
000190 82 4e 5c be ae 26 e2 bc 92 2f 5a be 5e 1a 2d be
       -0.21514323 -0.027606335 -0.21307209 -0.1690459
0001a0 58 8e 39 bd 57 b2 db 3e 67 09 40 be 54 3c 5b be
       -0.045301765 0.429095 -0.18753587 -0.21409732
0001b0 ce 8f 1f 3d 38 13 00 bd d6 d2 ef be 7c 29 f6 3e
       0.038955502 -0.03126833 -0.46840543 0.48078525
0001c0 fa 87 8d 3e b0 9f 64 be f4 20 fc bd 61 93 9c 3d
       0.27642804 -0.22326541 -0.12310973 0.07645298
0001d0 a5 2a c5 3c 24 94 56 be c2 f6 12 3e 71 39 86 be
       0.024068186 -0.20954949 0.14351943 -0.262157
0001e0 6e 68 0b be 20 6e 86 be 40 02 34 be ff f4 d2 3e
       -0.13614056 -0.26255894 -0.17578983 0.41202542
0001f0 06 fa fb 3e 44 02 86 be 64 22 86 be a3 03 05 be
       0.4921419 -0.26173604 -0.26198113 -0.12989669
000200 07 e2 2e bd 2a ea c8 be a4 2c 3d 3e 49 71 48 3e
       -0.042696025 -0.39241153 0.1847406 0.19574465
000210 19 46 5f bc d0 9b ae 3e 9c 32 6b bd d7 33 05 be
       -0.013627552 0.3410325 -0.05742131 -0.13008057
000220 24 8f 73 bd b9 1f eb 3d 64 3a 07 3f 98 64 2e 3e
       -0.05946268 0.1148066 0.5282347 0.17030561
000230 83 4c 06 3f 5d 96 bd bd fe 66 3d be 7a 92 28 3e
       0.524605 -0.09257195 -0.1849632 0.16462126
000240 fa 5c 21 be 9a 80 35 3f 98 15 13 be 71 37 cd 3e
       -0.15758124 0.70899355 -0.14363706 0.4008136
000250 26 aa 37 3f ae 32 7b 3e c8 e2 63 3e ce b5 74 bd
       0.71744 0.24531052 0.22254479 -0.059743695

l1.bias f4 [8]
000000 bb a6 f1 3e 59 46 e3 3e 33 74 f2 3e 3b b6 81 3e
       0.47197518 0.44389609 0.47354278 0.25334343
000010 e8 31 12 3f c7 e2 59 3e 1d 04 86 3e 0b 73 21 3e
       0.571074 0.21277915 0.26175013 0.15766542

l2.weight f4 [8, 8]
000000 9f db a0 3f af 37 39 3f d7 e5 1f bf a9 e5 db 3e
       1.2567023 0.7235059 -0.6246008 0.42948654
000010 ed b7 97 3f 59 e2 e8 bd 0f 8b 3c be c4 0b 66 be
       1.1853005 -0.113712974 -0.18412422 -0.22465426
000020 71 4f e9 bc ad d2 56 3e 7f db 63 3f 32 06 99 be
       -0.028480263 0.20978804 0.890068 -0.2988754
000030 c8 9b 63 3d 62 e7 11 bf 61 fd 9b be 78 d1 5d 3f
       0.055568486 -0.5699369 -0.3046675 0.8664775
000040 d7 95 72 be 34 fb 04 3f 74 4c 37 3f d5 ce 32 bf
       -0.23689972 0.51945806 0.71601033 -0.6984685
000050 b0 67 bc 3d 25 01 32 bf 88 f6 27 bf aa c7 07 3f
       0.09199464 -0.69532996 -0.6561055 0.5303904
000060 9f fc a6 be 40 07 e2 3b 16 28 17 3e fe 45 20 3e
       -0.3261461 0.006897837 0.14761385 0.156517
000070 66 24 2c 3e 2a 15 8c be 28 3c 80 bd fc 0b 94 be
       0.1681076 -0.27359897 -0.06261474 -0.28915393
000080 c3 6a 4c be 8e a9 9c be dc bf 19 be 58 09 90 bd
       -0.19962601 -0.3059811 -0.15014595 -0.07033032
000090 20 98 39 bc 80 18 74 bc 68 b2 66 be 86 66 4c 3e
       -0.011327773 -0.014898419 -0.22528994 0.19960985
0000a0 55 ca a8 be cd 02 9f be 9a 4c 66 3e 5a 47 09 3e
       -0.32966867 -0.31056824 0.22490159 0.13406125
0000b0 72 31 6b 3e cc 99 eb bd 99 ac ad be f4 25 c8 bd
       0.2296808 -0.11503944 -0.33920744 -0.09772864
0000c0 db 54 85 be c2 af fe 3e 55 e8 da 3e 70 0a 95 be
       -0.26041302 0.49743468 0.4275538 -0.29109526
0000d0 06 e0 ae bb 7b 3c 1f bf 11 75 17 bf c3 ad 5a 3f
       -0.0053367643 -0.6220166 -0.59163004 0.8542139
0000e0 64 fa 08 bf b6 1c 47 3f ad 5f 34 3f b0 7a 20 bf
       -0.53507066 0.77778184 0.7045849 -0.62687206
0000f0 fd 2c 15 be a7 00 e7 be 88 c8 3c bf 79 3c 1a 3f
       -0.14567943 -0.45117685 -0.73743486 0.60248524

l2.bias f4 [8]
000000 67 13 51 3e 0b cd aa ba 81 6a f0 3e dd 8e 47 be
       0.20417558 -0.0013031078 0.46956256 -0.19488092
000010 fe b1 a5 be d1 e5 53 be a3 43 50 3e 19 89 f0 3e
       -0.3236236 -0.20693137 0.20338301 0.46979597

l3.weight f4 [3, 8]
000000 98 50 a1 bf 77 51 86 bf db 26 a8 be 24 77 a2 bd
       -1.260272 -1.0493611 -0.32842144 -0.079328805
000010 00 58 66 b9 35 eb 01 be d3 b4 04 bf d1 7e d8 be
       -0.00021967292 -0.1268738 -0.51838416 -0.42284253
000020 3f 03 6f 3f c1 9c 6d bf 4e b8 30 3c 5c 83 9e 3d
       0.9336433 -0.9281731 0.010786129 0.077398986
000030 50 05 c0 3d 1a 12 3f 3e cd c6 67 bf 11 ae e9 be
       0.09376013 0.18659249 -0.9053772 -0.45640615
000040 0c 23 52 bf da 20 80 3f 5f 46 de 3e a4 77 c9 3d
       -0.8208473 1.0010026 0.43413064 0.09837273
000050 c0 bb d0 3d 80 9f 9b 3b 14 1b 23 3f 2f b0 16 3f
       0.101920605 0.0047492385 0.6371319 0.58862585

l3.bias f4 [3]
000000 c1 63 99 3f 11 03 30 bf 14 eb 51 bf
       1.1983567 -0.6875468 -0.81999326
