data.pth (torch, 3370 bytes, 6 tensors)

l1.weight f4 [8, 12]
000000 3c 92 87 3d 11 b9 0a be 0c e9 4f bd 18 4a 7a 3d
       0.06619689 -0.1354716 -0.05075936 0.061105818
000010 da 66 f3 bd de 40 2b be 2c 7b 57 be 42 94 46 be
       -0.11884852 -0.16723964 -0.2104308 -0.19392493
000020 32 e4 4a 3e 04 31 86 3d 5e 92 00 be f4 7a 4d be
       0.19813612 0.06552318 -0.12555835 -0.20066434
000030 4c e5 e3 bd 60 4f 08 3c 17 0e 0b be 86 88 f8 bd
       -0.11127719 0.008319706 -0.13579594 -0.12135415
000040 4d 1d 87 be 8c e2 28 bd 41 ef 1f be 3c bd 17 be
       -0.26389542 -0.041231677 -0.15618612 -0.14818281
000050 34 29 8f 3e b6 7b 6a be 14 27 93 bd 2a 9c 23 be
       0.27961123 -0.22898754 -0.07185188 -0.1597754
000060 40 20 79 be e0 4e 75 3c 38 98 1f be 1c 35 71 be
       -0.24328709 0.014972419 -0.1558541 -0.23555416
000070 80 13 1a bc 28 15 62 bd 80 7e 69 bc 5e 2c 80 be
       -0.009404063 -0.055195957 -0.014251351 -0.2503385
000080 1f 10 57 be 04 e4 e5 3d 2e 28 3c 3e 74 22 fc 3d
       -0.21002243 0.11225131 0.18374702 0.12311259
000090 00 ca 16 3e f1 ba 1f 3f 68 aa 60 be e4 2b 1d be
       0.14725494 0.62394625 -0.21940005 -0.15348774
0000a0 34 b0 5c be be b1 2e 3f bd 79 32 3e 49 65 ac be
       -0.21551591 0.68239963 0.17429252 -0.33671024
0000b0 40 6c c7 bc 1d ab 10 3f f1 f6 c0 be c6 ac 18 bf
       -0.02434361 0.565111 -0.376884 -0.5963863
0000c0 46 5c 1e 3e e3 f2 dd bd 3a b6 07 3e d4 25 ae 3e
       0.15464887 -0.108373426 0.13253108 0.34013236
0000d0 44 e1 ab 3c e7 74 02 be 5b 5a 7d be eb d6 5c 3e
       0.020981438 -0.12739907 -0.24741499 0.2156636
0000e0 5a 4a c0 3d 5c 8a 36 be 0d c5 16 3f d1 9d 10 3f
       0.093891814 -0.17826217 0.58894426 0.5649081
0000f0 91 42 2e 3e aa b9 8f be b7 9a 03 3e bc 55 8a 3d
       0.1701758 -0.28071338 0.12851988 0.06754634
000100 f1 8f a0 3e 5c 44 b1 bd 8e 4a b2 bd 83 4b f1 3e
       0.3135982 -0.08655617 -0.087056264 0.47127923
000110 b5 e4 67 3e 75 e6 44 3e aa b2 d2 3e 7a 8b 03 3f
       0.22645839 0.19228537 0.41151935 0.513847
000120 88 00 22 3e e1 da e8 be 5b 28 b6 bd 22 ca 78 bd
       0.15820515 -0.4547949 -0.08894416 -0.060739644
000130 17 de 82 3e 6f ca cc be 8c 9e cc be 08 3e 05 3f
       0.25560066 -0.39998195 -0.39964712 0.5204778
000140 7b 85 da bc 74 b8 60 3d 37 fa 6d 3e e6 8c 11 3f
       -0.026674977 0.05486341 0.2323998 0.5685562
000150 2b 00 6a 3d a5 9d 78 be 63 fa b1 3d 12 33 d6 3d
       0.057129066 -0.24278887 0.086903356 0.1045896
000160 41 2e 9b 3e 4c 83 76 be 6d 49 76 be e3 36 06 3f
       0.30308726 -0.24073523 -0.24051447 0.524275
000170 50 10 f2 3e d2 94 1a 3b 70 6c 24 3f 36 08 d9 3e
       0.4727807 0.002358724 0.6422796 0.42389077

l1.bias f4 [8]
000000 ae 82 4a be ca 7b 33 be 64 2c 92 be 07 b3 18 3f
       -0.19776413 -0.1752769 -0.28549492 0.59648174
000010 61 4f 7d 3e 39 8f b0 3d db 8c cc 3e b3 49 76 3e
       0.24737312 0.086210676 0.39951214 0.24051552

l2.weight f4 [8, 8]
000000 87 cf 2e be b0 22 7e 3d 89 52 13 be 77 fc f3 bc
       -0.17071353 0.0620448 -0.14386953 -0.02978347
000010 06 d7 5f 3f 99 68 fa 3e fb 99 78 3f a3 64 35 3f
       0.87437475 0.48907927 0.97109956 0.70856684
000020 50 c8 e2 bc a9 4b 76 be 68 d2 93 3d fe c9 3a be
       -0.027683407 -0.240523 0.07217866 -0.18241116
000030 87 2e 22 3f 99 7b 99 3e 16 4d 8f 3e c5 b4 23 3f
       0.63352245 0.2997711 0.279885 0.6394771
000040 59 ba 41 be 53 2f 83 be 52 4d 64 3e 28 bd cc 3d
       -0.18918742 -0.25622043 0.2229512 0.09997016
000050 11 ed aa be fe c6 1e be ed fe a8 be 50 dc a2 bc
       -0.33383992 -0.15505597 -0.33006993 -0.019880444
000060 fc ed 4a be ea ef 78 3e b0 26 3c be a0 df 58 3d
       -0.19817346 0.2431027 -0.18374133 0.05294764
000070 aa e9 22 3e 7c 10 48 be ca ff 17 3e 48 cc 9d be
       0.15909448 -0.19537538 0.1484367 -0.30819917
000080 38 7b 21 be a0 f8 c9 bd fb 9f 6c be 46 d0 09 bf
       -0.1576966 -0.098618746 -0.23107903 -0.53833425
000090 be 86 10 3f fe de 1c 3f 74 18 2c 3f bd 70 07 3f
       0.564556 0.6127776 0.6722481 0.529064
0000a0 72 c1 1d 3e cb d4 ac be 49 11 b0 be e4 63 98 3f
       0.15405825 -0.33756098 -0.34388188 1.1905484
0000b0 ad fd 5f bd f3 b7 02 bf f5 3a 17 bf f6 fb f2 be
       -0.054685283 -0.51061934 -0.59074336 -0.47457856
0000c0 06 3c 91 be 48 fb cf 3d b0 a7 e0 bd d7 a8 20 3f
       -0.28366107 0.1015535 -0.10969484 0.6275763
0000d0 cc a7 90 be 5a 63 de be 7d cb 9d be 52 2f 8d be
       -0.2825302 -0.43435174 -0.30819312 -0.27575165
0000e0 1a ef 0f be b2 8f 5e 3e e4 e1 d9 3d cb 08 20 bf
       -0.14056054 0.21734503 0.10638788 -0.62513417
0000f0 71 d6 fc 3e 1c d0 04 3f af 38 24 3f ca 0c 32 3f
       0.49382356 0.5188005 0.6414899 0.69550765

l2.bias f4 [8]
000000 82 ba 8a bd 11 9e 89 3c 39 1a 5e be e1 f7 90 be
       -0.06773855 0.016799005 -0.2168969 -0.28314117
000010 a9 3d 6e 3e f1 48 5c 3f 4c 40 36 3f 80 81 7c 3e
       0.23265709 0.860488 0.7119186 0.24658775

l3.weight f4 [2, 8]
000000 21 19 8c bf 30 3c 3d bf 80 4d 3a bc 84 d5 c3 3d
       -1.0945169 -0.73919964 -0.0113710165 0.09562209
000010 8a d9 9e be b5 bf 70 3f 7d 9c 3c 3f 67 d6 10 bd
       -0.31025344 0.9404252 0.7367628 -0.03536072
000020 5f 1c 2f 3f ab 4e cd 3e 78 52 50 3d 27 71 34 be
       0.68402666 0.4009908 0.0508599 -0.17621289
000030 84 c3 39 3e af 6e 06 bf 63 16 72 bf dc c6 27 3f
       0.1814099 -0.5251264 -0.9456541 0.6553781

l3.bias f4 [2]
000000 f7 fd 66 be b4 11 ad be
       -0.22557817 -0.3380257
